models/shape_classifier.pt (torch, 314383 bytes, 8 tensors)

conv1.weight f4 [12, 3, 3, 3]
0	0x3dd9f496	0.10642354
1	0xbe5469c6	-0.20743474
2	0x3dabd040	0.0838933
3	0xbd3a8ef9	-0.045546506
4	0x3e214280	0.15748024
5	0xbe108b16	-0.14115557
6	0xbded10f4	-0.11575499
7	0xbd09abb4	-0.033611014
8	0x3d819a36	0.063282415
9	0xbe115563	-0.14192729
10	0x3e098ec3	0.13433366
11	0xbe3ae6a0	-0.18252039
12	0xbe54c721	-0.20779087
13	0xbdd0df2a	-0.10198815
14	0xbe4a241b	-0.19740336
15	0xbdb5aaf2	-0.08870496
16	0xbe3129ba	-0.17301074
17	0xbd35e85c	-0.04441105
18	0xbe6b6c1c	-0.22990459
19	0x3c300d4d	0.010745359
20	0xbd73e826	-0.059547566
21	0xbe33d7af	-0.17562746
22	0xbe58c895	-0.21170266
23	0x3d96581c	0.07341024
24	0xbe6a963c	-0.22908872
25	0xbe3a3e8a	-0.1818792
26	0x3cb95f1d	0.022628361
27	0x3d1755b2	0.03694696
28	0x3dcedebe	0.101010785
29	0xbbd23cbf	-0.006415933
30	0xbc1f2888	-0.009714253
31	0x3db1bac9	0.086782046
32	0x3d9e2ded	0.077236034
33	0x3e16def9	0.14733495
34	0x3deaa587	0.11457353
35	0x3d531e5c	0.051542625
36	0xbdbda95b	-0.092608176
37	0x3e128b01	0.14310838
38	0xbc93caa1	-0.018040957
39	0x3dbcd3d4	0.092200905
40	0xbd53ea6b	-0.05173723
41	0x3db6e2d2	0.08929981
42	0x3d884c6d	0.06655202
43	0x3e4248a1	0.18973018
44	0x3d32ad31	0.0436222
45	0xbe0a0544	-0.13478571
46	0x3c12ceeb	0.008960466
47	0xbcc9a8b4	-0.024616577
48	0x3e40caff	0.18827437
49	0x3c563315	0.013073702
50	0xbe0a5e3a	-0.13512507
51	0xbbf0eb89	-0.0073522967
52	0x3e435087	0.19073687
53	0x3e39b210	0.18134332
54	0xbdf00ad2	-0.11720814
55	0x3e1ae09c	0.15124744
56	0x3e389d89	0.18028845
57	0xbc16a748	-0.009195156
58	0xbe404b0c	-0.18778628
59	0x3e3afce4	0.18260533
60	0xbe39bd3d	-0.18138595
61	0xbce6e052	-0.028183136
62	0xbe267779	-0.16256513
63	0xbd81b441	-0.06333209
64	0xbc0f1235	-0.008732368
65	0xbdbd0ddf	-0.09231161
66	0x3dc6bc92	0.09703936
67	0x3dc5b1c9	0.096530505
68	0xbdb6bba4	-0.08922508
69	0xbd8486e0	-0.06471038
70	0x3dceee77	0.10104077
71	0x3e11ae15	0.14226563
72	0xbe1cf061	-0.15326072
73	0xbd85146c	-0.06498036
74	0xbc3dd276	-0.011585822
75	0x3e312506	0.1729928
76	0x3db7fb59	0.08983488
77	0x3caf82bb	0.021424642
78	0x3d343c03	0.044002544
79	0xbd906ec2	-0.070523754
80	0x3dfebdba	0.12438531
81	0x3c083f26	0.008315837
82	0x3d38b03e	0.045089953
83	0x3e0e4b70	0.13895965
84	0xbd5cad0c	-0.053875968
85	0x3e39af88	0.18133366
86	0x3d023d28	0.031796604
87	0xbcd0fde8	-0.025511697
88	0x3dc94f85	0.0982962
89	0xbe3aa103	-0.18225484
90	0xbdf1971a	-0.117963985
91	0x3d76f97a	0.060296513
92	0xbe03a7a1	-0.12856914
93	0x3d6d448a	0.057926692
94	0xbd953059	-0.07284612
95	0xbdeed4ef	-0.116617076
96	0xbdaf38de	-0.085557684
97	0x3dd0c2f7	0.101934366
98	0xbcde2849	-0.027118819
99	0xbd9c307d	-0.07626436
100	0xbde282dd	-0.110601164
101	0xbe52d859	-0.20590343
102	0xbcd4e941	-0.02599013
103	0x3e2e1011	0.16998316
104	0x3e3a426c	0.181894
105	0x3e3a069f	0.18166588
106	0x3e202a71	0.1564119
107	0xbca49039	-0.020088302
108	0x3e2f7076	0.17132744
109	0xbd683054	-0.056686714
110	0x3c9fc506	0.019503128
111	0xbe2a8dc6	-0.16655645
112	0xbd0a9c54	-0.033840492
113	0x3c62a19f	0.013832479
114	0x3dfcc296	0.12341802
115	0x3e2c5532	0.16829374
116	0xbd88d302	-0.066808715
117	0x3cad1519	0.021128224
118	0x3e0deece	0.13860628
119	0x3ddbd47e	0.10733889
120	0xbc9945b8	-0.018710002
121	0x3e382b14	0.17985183
122	0xbde92c75	-0.11385433
123	0xbe1c7707	-0.1527978
124	0x3e0f64cf	0.14003299
125	0xbd84e29e	-0.06488536
126	0xbdd12031	-0.10211218
127	0x3d973b51	0.073843606
128	0x3e4536b6	0.19259152
129	0xbc1ad76c	-0.009450775
130	0xbe34da1b	-0.17661326
131	0x3e1800aa	0.14844003
132	0xbe351348	-0.17683136
133	0x3e3c7dea	0.18407407
134	0x3dc9b1e9	0.09848387
135	0x3e351d6d	0.17687006
136	0xbdea8b66	-0.114523694
137	0xbd4c727e	-0.049913876
138	0x3d383f46	0.044982217
139	0x3c7f9e71	0.01560174
140	0xbe25c1ca	-0.16187206
141	0x3de7594f	0.11296331
142	0xbce78162	-0.028259937
143	0x3da52828	0.080643
144	0x3df13110	0.11776936
145	0x3e0e2f88	0.13885319
146	0x3e3bbb8d	0.18333264
147	0xbdd9c353	-0.10632958
148	0x3d94579b	0.07243272
149	0x3d828cf8	0.06374544
150	0x3d56e92a	0.052468456
151	0x3d8de3cf	0.06928217
152	0x3dfde9ee	0.12398134
153	0x3cb125f6	0.021624546
154	0x3e305ff3	0.17224102
155	0x3d24a01c	0.040191755
156	0xbe257975	-0.16159613
157	0xbda91617	-0.082561664
158	0xbe4502fd	-0.19239421
159	0xbe1fd264	-0.15607601
160	0xbe1af09f	-0.15130852
161	0xbdd361dc	-0.103213996
162	0x3d950e6b	0.07278141
163	0xbde5a0d3	-0.112123154
164	0x3c690a99	0.014223718
165	0x3e45a8e4	0.19302708
166	0x3d9cc53c	0.07654807
167	0x3db0d59f	0.08634495
168	0x3e519cd3	0.2046998
169	0xbe14b846	-0.1452342
170	0x3e05e14e	0.13074228
171	0xbdc388a6	-0.09547548
172	0x3e178c88	0.14799702
173	0xbe10e9fc	-0.14151758
174	0x3db2aa77	0.0872392
175	0x3e067e68	0.13134158
176	0xbd7bc6e9	-0.061468992
177	0x3e116dd1	0.14202048
178	0x3e171bf0	0.14756751
179	0xbe04112f	-0.1289718
180	0x3db13aca	0.08653791
181	0x3e18b08f	0.14911102
182	0x3cecb6ad	0.0288957
183	0xbdf1fe41	-0.11816073
184	0x3ded02cd	0.115728
185	0x3d63cdcf	0.055616196
186	0xbd080756	-0.03321012
187	0x3e3a4b5d	0.18192811
188	0xbda86c8c	-0.08223829
189	0x3d902d8a	0.07039936
190	0x3e306d24	0.17229134
191	0x3df3b96e	0.11900602
192	0x3d93cfaa	0.07217343
193	0xbc65ae62	-0.014018627
194	0x3e352e42	0.17693427
195	0x3e03341f	0.12812851
196	0xbe089cdd	-0.13341089
197	0x3dc4ff37	0.09618991
198	0xbd46b44b	-0.048511785
199	0x3d0a9178	0.033830136
200	0xbd7ce2e6	-0.061739825
201	0xbe3d18d7	-0.18466507
202	0x3d7b1c6a	0.061306395
203	0x3d269525	0.04066958
204	0xbcd6608c	-0.026169084
205	0x3d569596	0.05238875
206	0xbe0b0240	-0.13575077
207	0xbe23d1d7	-0.15998016
208	0x3e19da21	0.15024616
209	0x3e27197b	0.16318314
210	0x3e0e2072	0.13879564
211	0xbdf49903	-0.11943247
212	0xbda0a006	-0.07843022
213	0x3e1a83d2	0.15089348
214	0x3e2b9040	0.16754246
215	0xbd267c5c	-0.040645942
216	0xbdedbea0	-0.116086245
217	0xbe541b0f	-0.20713447
218	0x3d6007fc	0.054695114
219	0xbdb4c712	-0.08827032
220	0xbe427f75	-0.18993933
221	0xbdf8058b	-0.12110432
222	0x3bb08279	0.0053866473
223	0x3d2791c8	0.040910512
224	0x3d6a65d6	0.057226025
225	0xbe16f239	-0.14740838
226	0xbe27c938	-0.16385353
227	0xbe103717	-0.14083515
228	0xbe037b0d	-0.12839909
229	0xbcbde3af	-0.023179857
230	0xbe54aba8	-0.20768607
231	0xbe17e0f3	-0.14831905
232	0xbe27a32e	-0.16370842
233	0xbd3c31ac	-0.04594581
234	0x3d53b73e	0.051688425
235	0x3d1ce38f	0.038302954
236	0x3c518541	0.012788118
237	0x3dfa53a0	0.122229815
238	0x3b3d760f	0.002890948
239	0x3dae9d2a	0.085260704
240	0x3d9413db	0.0723035
241	0x3e5bf047	0.21478377
242	0x3e035e7e	0.12829015
243	0x3d698db8	0.05701992
244	0x3e196fba	0.14984027
245	0xbc61ce2e	-0.013782067
246	0xbdd65b48	-0.10466629
247	0xbba3db78	-0.005000528
248	0xbe365d9b	-0.17809145
249	0xbd72077a	-0.05908916
250	0x3bb9753d	0.005659728
251	0xbe5f5846	-0.21811017
252	0x3d9839fd	0.074329354
253	0xbb1c264d	-0.002382654
254	0xbd95389b	-0.07286187
255	0xbd418037	-0.047241416

conv1.bias f4 [12]
0	0xbd6a5526	-0.05721011
1	0xbb9e2062	-0.0048256377
2	0xbdb625c9	-0.08893926
3	0xbdd6c7d1	-0.10487331
4	0x3cd6bca2	0.026212994
5	0xbe0ce3b9	-0.13758744
6	0xbe096b9d	-0.13419957
7	0xbde6c678	-0.11268324
8	0x3d578ac3	0.052622568
9	0x3bd56ae6	0.0065129874
10	0x3ca49792	0.020091806
11	0xbe3965c5	-0.18105228

conv2.weight f4 [12, 12, 3, 3]
0	0x3dcf2e93	0.10116305
1	0x3b06f6e5	0.0020593938
2	0x3a062fd4	0.0005118821
3	0x3cdd738e	0.02703264
4	0x3debf30c	0.11520967
5	0x3d248e92	0.04017503
6	0xbc8b1994	-0.01697997
7	0x3d40badc	0.047053203
8	0x3d803f09	0.06262023
9	0x3d255ce4	0.04037179
10	0xbd086bec	-0.033306047
11	0xbd22cbc6	-0.039745115
12	0xbd991ee6	-0.074765965
13	0xbdbebe4e	-0.093136415
14	0x3cca11f3	0.024666762
15	0x3d4e2791	0.050330702
16	0x3cc86034	0.024459936
17	0x3d2ab1d8	0.04167351
18	0xbce45708	-0.027873531
19	0xbd315ca6	-0.043301247
20	0x3befe090	0.007320471
21	0xbd8be4e7	-0.06830769
22	0xbd84edcd	-0.064906694
23	0x3d7beaaf	0.06150311
24	0x3ac2926a	0.001484466
25	0x3b36471b	0.0027813378
26	0x3de690ec	0.112581104
27	0x3db40738	0.08790439
28	0xbd0d5b02	-0.03451062
29	0x3e05a45c	0.1305098
30	0x3c615f61	0.01375565
31	0xbc9f482a	-0.01944359
32	0x3da22b4b	0.07918414
33	0x3de2ed84	0.11080459
34	0xbc7c7eae	-0.015411062
35	0x3dcd29e5	0.100177564
36	0x3c5d7fac	0.013519209
37	0x3d8ef1fd	0.06979749
38	0xbd0f0429	-0.034916077
39	0x3d5fc1db	0.054628234
40	0xbc670531	-0.014100359
41	0xbd9fc775	-0.07801715
42	0x3d214be5	0.03937902
43	0x3d67b217	0.056566324
44	0xbbb08044	-0.005386384
45	0x3d0a8406	0.033817314
46	0x3d42af6c	0.047530577
47	0x3be36803	0.0069398894
48	0x3d59f522	0.053212292
49	0x3d2a8e58	0.041639656
50	0x3d23014e	0.039796166
51	0xbcc70d2a	-0.02429827
52	0x3de28131	0.110597976
53	0xbd7200f4	-0.05908294
54	0x3cc0104c	0.023445271
55	0x3d822f10	0.06356633
56	0xbd62eaa5	-0.055399556
57	0xbd0fe950	-0.035134614
58	0xbdd1b3b3	-0.10239353
59	0xbdb76b46	-0.08956008
60	0x3c04b3d0	0.008099511
61	0x3d346fb0	0.044051826
62	0xbc7941f5	-0.015213479
63	0xbdb31f18	-0.08746165
64	0xbdca3e01	-0.098751076
65	0xbd9b2733	-0.07575836
66	0x3db25c7a	0.08709045
67	0xbb610a7a	-0.003433852
68	0xbd309f77	-0.043120828
69	0xbc9a0709	-0.018802183
70	0x3d9ba1fd	0.07599256
71	0x3ccc4dec	0.0249395
72	0x3dd2858f	0.102793805
73	0x3db6472e	0.08900295
74	0x3bcb80af	0.0062104086
75	0xbd44cfc8	-0.04804972
76	0x3df51790	0.11967385
77	0xbd301976	-0.04299303
78	0xbb8aed0e	-0.004239685
79	0xbd2372e8	-0.039904505
80	0x3db5a124	0.08868626
81	0x3dfd9a2c	0.123829216
82	0xbd60572f	-0.054770645
83	0x3df124c3	0.1177459
84	0x3e0fe5a6	0.14052448
85	0xbd0f30ca	-0.03495864
86	0x3dff6c8e	0.12471877
87	0x3dcffcba	0.10155626
88	0xbda09fdf	-0.07842993
89	0x3e045ecd	0.12926789
90	0xbd4f2a69	-0.050577555
91	0x3dd16f22	0.10226275
92	0x3cdc40d9	0.02688639
93	0xbd84c1e9	-0.06482298
94	0xbc22dcbb	-0.009940322
95	0x3d951b01	0.07280541
96	0xbc33cde1	-0.010974378
97	0x3c26cafd	0.010180232
98	0x3d81d3c4	0.06339219
99	0xbca3afb6	-0.019981246
100	0xbd0d019f	-0.034425374
101	0x3d970ebb	0.073758565
102	0x3dad4383	0.084601425
103	0xbd78b70a	-0.060721435
104	0x3d8d297d	0.06892679
105	0x3d9c543e	0.076332554
106	0x3da36d62	0.079798475
107	0xbd9a0b69	-0.075217076
108	0x3cd32a5f	0.02577704
109	0x3b504e2a	0.003178487
110	0xbd78a531	-0.060704414
111	0xbce44591	-0.027865203
112	0x3ced673b	0.028979888
113	0x3df9ebe4	0.12203196
114	0xbca8bc66	-0.020597648
115	0xbc581279	-0.013187998
116	0x3dac61de	0.08417104
117	0x3d6e96ad	0.058249164
118	0xbd8de44a	-0.06928308
119	0xbcf77233	-0.030205822
120	0xbb691234	-0.0035563828
121	0xbd82ca1f	-0.06386208
122	0xbca0b346	-0.019616734
123	0x3dc848d8	0.09779519
124	0x3d7e8336	0.06213685
125	0x3c80c364	0.01571817
126	0x3afdd9b3	0.0019367248
127	0x3b3a90f3	0.0028467744
128	0xbd63ca8d	-0.05561309
129	0xbda13b49	-0.07872636
130	0xbc2daf8c	-0.010600936
131	0xbd576164	-0.052583113
132	0x3daeacfc	0.08529088
133	0xbd1cd061	-0.038284663
134	0x3b27c696	0.0025600544
135	0x3d0cb202	0.03434945
136	0x3d969cd2	0.0735413
137	0xbd231e24	-0.039823666
138	0xbd517b9f	-0.051143285
139	0xbd983f21	-0.07433916
140	0xbd9b6cb2	-0.07589091
141	0xbd424773	-0.04743142
142	0x3dd14f8a	0.10220249
143	0xba94f394	-0.0011364096
144	0x3dae1563	0.08500173
145	0xbd6cc923	-0.057809006
146	0xbc90e7dd	-0.017688686
147	0xbc1150af	-0.008869334
148	0xbdb8bcfe	-0.090204224
149	0xbc8dde1f	-0.01731783
150	0x3ce87591	0.028376373
151	0xbd92b9ba	-0.07164331
152	0x3bedbf05	0.0072554373
153	0xbd98cff0	-0.07461536
154	0x3d382938	0.044961184
155	0x3d8ecbe9	0.069724865
156	0x3d9285c3	0.07154419
157	0xbd3ca75d	-0.046058048
158	0x3b3327f8	0.0027337056
159	0xbd753d20	-0.059872746
160	0xbc890b26	-0.016728949
161	0x3da99041	0.082794674
162	0xbbeb32c3	-0.007177682
163	0xbdaac74b	-0.08338793
164	0xbba9cbaf	-0.0051817517
165	0xbd19ddfc	-0.037565216
166	0x3d145e32	0.036222644
167	0xbdbf1cfd	-0.09331701
168	0x3dadf2c7	0.08493572
169	0x3d837cf1	0.06420315
170	0xbcfa0238	-0.030518636
171	0x3d29c8bf	0.041451212
172	0x3ca42626	0.020037722
173	0x3d8728c0	0.06599569
174	0x3ce361f5	0.02775667
175	0x3d7ad5bc	0.06123899
176	0x3d3de92d	0.046364952
177	0x3cf83c94	0.030302323
178	0xbcd9d791	-0.026592048
179	0xbd4fd5e4	-0.05074109
180	0x3d2bad9f	0.041913625
181	0x3b850372	0.0040592486
182	0xbccb3813	-0.024807012
183	0xbd837784	-0.0641928
184	0x3cd8fc36	0.026487451
185	0xbd622a8b	-0.055216353
186	0x3c961e3b	0.018324962
187	0x3da030f2	0.078218356
188	0x3ddccb5f	0.107809775
189	0xbd35b390	-0.044360697
190	0x3c06438d	0.008194816
191	0xbbf7ad99	-0.0075585363
192	0x3db98673	0.09058847
193	0x3db4df4e	0.088316545
194	0xbcdd73d4	-0.02703277
195	0x3daecf28	0.08535606
196	0xbd513bb9	-0.051082347
197	0x3cb781d7	0.02240078
198	0x3d6b876c	0.057502195
199	0xbc9332a4	-0.017968483
200	0x3d552098	0.052033037
201	0xbd5a4d48	-0.053296357
202	0xbc9a5d2c	-0.018843256
203	0x3cf4df20	0.02989155
204	0x3d95d33a	0.07315679
205	0x3d1dc55b	0.03851829
206	0xbda1fc42	-0.079094425
207	0xbd6fea77	-0.058573212
208	0xbdb3cd72	-0.0877942
209	0x3d948276	0.07251446
210	0xbb9d7134	-0.0048047546
211	0xbd19f732	-0.03758926
212	0x3cda0733	0.026614761
213	0x3d0bd2c3	0.034136545
214	0x3dc965f8	0.09833902
215	0xbdb320f2	-0.08746518
216	0xbd2078e0	-0.039177775
217	0xbd910733	-0.07081451
218	0xbd508489	-0.050907645
219	0x3d225d13	0.039639544
220	0x3ca064f7	0.019579394
221	0x3c8e65dc	0.017382555
222	0x3bd70816	0.006562243
223	0x3e054493	0.1301444
224	0x3c9cb8ed	0.019131148
225	0x3d91fafe	0.07127951
226	0xbd0090a3	-0.031387936
227	0x3d7e6a8d	0.062113333
228	0xbdadcd33	-0.08486404
229	0x3d571893	0.05251367
230	0xbcd83be7	-0.026395751
231	0x3d6c6fd8	0.05772385
232	0xbd7a7b17	-0.061152544
233	0x3cdeae6b	0.027182778
234	0xbca1c855	-0.019748846
235	0x3df9b51f	0.12192749
236	0x3e063856	0.13107428
237	0x3c35d3ac	0.01109783
238	0x3ad8e691	0.0016548206
239	0x3daaead2	0.0834557
240	0xbd17c319	-0.037051294
241	0x3cea0293	0.02856568
242	0x3ac15094	0.0014748746
243	0xbd75f973	-0.060052346
244	0xbd4de222	-0.050264485
245	0xbd0abe1b	-0.033872705
246	0xbd6a1e7b	-0.057157975
247	0xbcf31d35	-0.029677013
248	0x3d9525ee	0.07282625
249	0x3db7cf03	0.08975031
250	0xbbd58f4d	-0.006517327
251	0x3c561a2d	0.013067764
252	0x3cfb0c29	0.030645447
253	0xbd7aa471	-0.06119198
254	0x3de94814	0.11390701
255	0x3d742f14	0.05961521

conv2.bias f4 [12]
0	0x3c5c07b4	0.013429571
1	0xbd454c84	-0.048168674
2	0x3d80b83b	0.06285139
3	0x3d172456	0.036899887
4	0xbda4acd5	-0.080407776
5	0x3db0aea5	0.08627061
6	0xbd5b8497	-0.053593244
7	0x3deeb6b7	0.11655944
8	0xbbf7388f	-0.007544584
9	0xbd375c03	-0.044765484
10	0x3d81d4a5	0.06339387
11	0x3d6770b9	0.056503985

conv3.weight f4 [24, 12, 3, 3]
0	0x3ceed532	0.029154394
1	0x3c607654	0.013700087
2	0xbcd3807f	-0.025818108
3	0x3d0cde1f	0.03439152
4	0xbd3eda17	-0.046594705
5	0x3cc9f2b1	0.024651857
6	0x3dcaa80e	0.09895335
7	0x3cdbc4a2	0.02682716
8	0x3c338aff	0.010958432
9	0xbb60be02	-0.003429294
10	0x3cdfb746	0.027309071
11	0x3d524252	0.05133278
12	0x3d426780	0.047461987
13	0x3a1d6959	0.0006004773
14	0xbdc7ad15	-0.0974981
15	0x3d4b9309	0.04970077
16	0x3c6c13b5	0.014408995
17	0xbd3179dd	-0.04332911
18	0xbccb0af4	-0.024785496
19	0x3d2b810d	0.04187112
20	0x3c3b8dcd	0.011447382
21	0xbd5649df	-0.052316543
22	0x3d57e231	0.052705947
23	0x3d2f8c0d	0.042858172
24	0x3da6acaa	0.08138402
25	0xbd41f37c	-0.047351345
26	0xbc8093eb	-0.015695533
27	0xbdc6864f	-0.09693586
28	0x3d58706f	0.0528416
29	0x3d9fa38f	0.07794868
30	0xbd3e85a8	-0.046514183
31	0x3db57fe6	0.08862285
32	0xbd63cf13	-0.055617403
33	0x3cc4539f	0.023965655
34	0xbdac9592	-0.08426966
35	0x3c56dd4b	0.013114284
36	0xbd6acb0e	-0.057322554
37	0x3d86930d	0.065710165
38	0x3d9791be	0.07400845
39	0xbd65a5f4	-0.05606647
40	0x3d47a665	0.04874267
41	0x3d34868f	0.044073638
42	0xbd80c262	-0.062870756
43	0xbdba59c1	-0.090991504
44	0xbd12ba06	-0.035821937
45	0x3d5fee0d	0.054670382
46	0x3daae1a4	0.08343819
47	0x3da983dc	0.08277103
48	0xbd6698d2	-0.056298085
49	0xbd7ca81a	-0.06168375
50	0x3d0a71bc	0.03379987
51	0xbd9d1aa0	-0.07671094
52	0xbd98fda6	-0.074702546
53	0x3d3c9b19	0.04604635
54	0x3ca952b1	0.020669313
55	0xbd725c67	-0.059170153
56	0xbd246259	-0.040132854
57	0xbd618d93	-0.055066656
58	0x3da423ba	0.08014627
59	0xbd9c3975	-0.076281466
60	0x3d9a0fec	0.07522568
61	0xbaa3f112	-0.0012507758
62	0x3d9d0c6f	0.07668387
63	0xbd8f7c61	-0.07006145
64	0xbd8e51aa	-0.0694917
65	0x3dd4d2ce	0.1039177
66	0x3cf3b680	0.029750109
67	0x3d88da0c	0.06682214
68	0xbca0cba8	-0.01962836
69	0xbc8ba5f6	-0.01704691
70	0xbd868c32	-0.06569709
71	0xbdb05a22	-0.086109415
72	0x3b73d19a	0.003720379
73	0xbd7c9e01	-0.06167412
74	0xbc564807	-0.013078696
75	0xbdb8d8dc	-0.09025738
76	0xbd3ab855	-0.04558595
77	0xbd045114	-0.032303885
78	0x3d24ad0b	0.04020409
79	0xbd627984	-0.055291668
80	0x3d727e14	0.05920227
81	0x3daf2b6e	0.085532054
82	0xbd09a5fd	-0.033605564
83	0xbd477d2b	-0.048703354
84	0x3da69e86	0.08135705
85	0xbd71d82d	-0.059044052
86	0x3d551b38	0.05202791
87	0x3aff278a	0.001946674
88	0xbdb4d57c	-0.088297814
89	0xbc4e83b2	-0.012604641
90	0xbd80653c	-0.06269309
91	0x3d9c4aae	0.076314315
92	0xbdb4fbe0	-0.08837104
93	0xbcc72ce9	-0.024313407
94	0xbd8c74a9	-0.06858189
95	0xbd54f452	-0.051990815
96	0xbc9884c7	-0.018618
97	0x3dab8ba7	0.08376246
98	0x3d0256bd	0.031821
99	0xbd36d533	-0.044636916
100	0x3d890abd	0.06691501
101	0xbcaf360d	-0.021388078
102	0xbdc020f4	-0.09381285
103	0xbd5cac5a	-0.053875305
104	0xbd9e524d	-0.077305414
105	0x3d126a9c	0.035746202
106	0x3d676aa5	0.05649819
107	0xbc403233	-0.011730718
108	0x3da7f9f2	0.0820197
109	0x3d10896a	0.0352873
110	0x3ca11c89	0.019666927
111	0xbc8e5683	-0.017375236
112	0x3dbb4712	0.09144415
113	0x3d96712d	0.07345805
114	0xbd6c452e	-0.057683162
115	0x3d3a0f36	0.045424663
116	0xbd09527e	-0.033525936
117	0x3cd70d83	0.02625156
118	0x3de30fde	0.11087011
119	0xbd2dea2d	-0.042459656
120	0x3db33178	0.0874967
121	0x3d8ed18d	0.069735624
122	0x3da78e13	0.081813954
123	0x3d8a7d10	0.06762135
124	0xbd94e21f	-0.07269692
125	0xbce6cbce	-0.028173354
126	0x3d15c4e4	0.036564723
127	0x3caae133	0.020859336
128	0x3e262621	0.16225483
129	0xbd316f33	-0.04331894
130	0x3dbc5f41	0.09197856
131	0x3ce93ee5	0.028472373
132	0xbdafb1b4	-0.08578816
133	0xbc8226e8	-0.015887693
134	0xbc4d69ec	-0.012537461
135	0x3cddcc1b	0.027074864
136	0x3d95fcf9	0.07323641
137	0xbc6ad973	-0.0143340705
138	0xbd206de7	-0.03916731
139	0xbd1058f2	-0.035241075
140	0x3dd8dbc0	0.10588789
141	0x3d0ca8d6	0.034340702
142	0xbcfeea29	-0.031117516
143	0x3c43b092	0.011943953
144	0xbcc9621c	-0.024582915
145	0xbd327e8b	-0.043577712
146	0x3b32f11f	0.0027304364
147	0xbd200411	-0.039066378
148	0x3ca8a015	0.020584146
149	0xbd5b490d	-0.053536464
150	0x3ce3464b	0.02774348
151	0xbd4194f0	-0.04726118
152	0x3e021229	0.1270224
153	0xbc868024	-0.016418524
154	0x3dbfcc9d	0.09365199
155	0x3dada20c	0.084781736
156	0x3cacc47a	0.021089781
157	0x3d53804b	0.05163602
158	0x3d308e38	0.04310438
159	0x3ce64d82	0.02811313
160	0xbd10b95c	-0.035333022
161	0x3d08fa39	0.033441756
162	0x3d95c43f	0.073128216
163	0xbda8f7cf	-0.08250391
164	0x3cc400b1	0.023926111
165	0x3dc24c8a	0.09487255
166	0x3b369bd7	0.0027863884
167	0xbd8f0f7b	-0.069853745
168	0x3d392717	0.045203295
169	0x3dc15720	0.09440446
170	0xbcf9fcb4	-0.030516006
171	0xbc65a147	-0.014015502
172	0x3e114709	0.14187254
173	0x3d3a7b26	0.0455276
174	0x3dbbae13	0.091640614
175	0x3cd24d0b	0.025671503
176	0xbc77a7fd	-0.015115735
177	0x3da34ffa	0.07974239
178	0x3dea7425	0.11447934
179	0x3dc1cbda	0.0946271
180	0x3cf1db7c	0.029523604
181	0x3e0baa63	0.13639216
182	0xbd596903	-0.053078663
183	0xbd5932aa	-0.053026833
184	0x3e05d515	0.13069566
185	0x3d6be16d	0.05758803
186	0x3bc5b50d	0.006033546
187	0xbd1b02d2	-0.037844487
188	0x3dd9bb1a	0.1063139
189	0xbccfde61	-0.025374593
190	0xbd497e08	-0.04919246
191	0xbd82535b	-0.06363555
192	0xbc982261	-0.01857108
193	0xbce483a1	-0.027894797
194	0xbc0080db	-0.007843222
195	0x3d4c917e	0.04994344
196	0xbcbf6d31	-0.023367496
197	0xbd4d66f5	-0.050147016
198	0xbd3fc994	-0.0468231
199	0x3de52219	0.11188144
200	0x3c0e1f92	0.008674519
201	0xbd8e31f4	-0.069431216
202	0x3cb346d4	0.02188436
203	0xbc9d96ce	-0.019236948
204	0x3d57f53f	0.05272412
205	0x3d347ae6	0.044062518
206	0xbc8f4d2b	-0.017492851
207	0x3d52576f	0.051352914
208	0x3d727a74	0.05919881
209	0x3dde106c	0.10842976
210	0xbd272927	-0.04081073
211	0x3d488321	0.04895318
212	0x3dbd0812	0.09230055
213	0x3d323d74	0.043515638
214	0xbd656391	-0.056003157
215	0x3daee6d9	0.085401244
216	0x3dcefcb3	0.10106792
217	0xbd85ccae	-0.0653318
218	0xbd38e01b	-0.0451356
219	0x3df52c93	0.119713925
220	0x3c08fa56	0.008360466
221	0xbd1a5b85	-0.037684936
222	0x3e0324cc	0.12807006
223	0x3d9e68b4	0.07734814
224	0x3dd3bf83	0.10339262
225	0xbd5a7f9a	-0.053344347
226	0x3d8a990d	0.06767473
227	0xbd6ecfdc	-0.0583037
228	0x3c70c4f6	0.014695397
229	0xbce680f4	-0.028137662
230	0xbcdfbeb0	-0.027312607
231	0x3d752659	0.059851024
232	0x3ddf7619	0.10911197
233	0xbc12e2ab	-0.008965175
234	0x3dedbb1f	0.11607956
235	0xbcc42a28	-0.023945883
236	0x3d52634b	0.051364224
237	0x3d5f744f	0.05455428
238	0x3e22dba7	0.15904103
239	0x3e046f10	0.12932992
240	0x3d53ed6f	0.051740106
241	0x3e01852a	0.12648454
242	0xbca33910	-0.01992467
243	0xbdc8904b	-0.09793147
244	0xbddc0246	-0.10742621
245	0xbcc6e8ce	-0.024280932
246	0xbd688b33	-0.056773376
247	0x3c03d74e	0.008046938
248	0xbd153d62	-0.036435492
249	0xbd8bd58d	-0.06827841
250	0xbbba1b72	-0.0056795413
251	0xbc1c5b72	-0.009543287
252	0x3bc13724	0.005896466
253	0xbc46bdbf	-0.0121302
254	0xbcbfe876	-0.023426276
255	0x3d69db22	0.057093747

conv3.bias f4 [24]
0	0x3d19d3eb	0.037555616
1	0x3cc4afb1	0.024009557
2	0xbcab33a7	-0.020898653
3	0x3d4a491b	0.049386125
4	0x3d1658da	0.03670583
5	0x3cabfa45	0.020993361
6	0x3c118411	0.008881585
7	0x3be9e93f	0.007138401
8	0x3c060c8d	0.008181703
9	0xbdb2532c	-0.0870727
10	0x3ce495e5	0.027903507
11	0xbd5ca628	-0.053869396
12	0xbdb1cb3c	-0.08681342
13	0xbc48feeb	-0.012267808
14	0x3d384b61	0.044993762
15	0x3c6cc95b	0.014452304
16	0xbd22c716	-0.039740644
17	0xbdbbfdff	-0.09179305
18	0x3d13b398	0.036059946
19	0x3d94bd6e	0.07262693
20	0x3daa6a8a	0.08321102
21	0x3da7dcc7	0.08196407
22	0x3d360b78	0.04444453
23	0x3c86b74c	0.016444825

fc.weight f4 [3, 24576]
0	0x3b07a029	0.0020694828
1	0x3c289649	0.010289737
2	0x3b3a30eb	0.0028410505
3	0xbb5f9630	-0.0034116618
4	0xbb20507d	-0.0024462037
5	0x3b10c330	0.0022088997
6	0xbc0571d1	-0.008144812
7	0x3b3f63d7	0.0029203796
8	0x3befb057	0.0073147225
9	0x3b73ab70	0.0037181042
10	0xbad82580	-0.0016490668
11	0x3b4d3e7f	0.0031317768
12	0xbb13853b	-0.0022509831
13	0xbbd16567	-0.006390262
14	0x3aafb3a4	0.0013404978
15	0xbba47a7b	-0.0050194836
16	0xbb933fd8	-0.0044936948
17	0xb9e15989	-0.00042982053
18	0xbbfbdb0a	-0.0076860236
19	0x3b090857	0.0020909512
20	0x3999aaa4	0.0002930957
21	0xbbd8e977	-0.006619628
22	0x3b9c0627	0.0047614756
23	0x3afea9f4	0.0019429312
24	0xbb35e94a	-0.002775746
25	0x3be83056	0.00708584
26	0xb908af66	-0.00013035312
27	0xbc561667	-0.013066865
28	0x3bcf0601	0.0063178544
29	0x3aaa1fb8	0.0012979424
30	0xbba95e91	-0.005168744
31	0x3b2a3350	0.0025970526
32	0x3b9e60f9	0.0048333374
33	0xbbe8f725	-0.00710954
34	0xbb7bf4b4	-0.0038445415
35	0x3ab91f30	0.0014123674
36	0xbc3837e4	-0.011243794
37	0x3a515de2	0.0007986707
38	0xbc22102b	-0.00989155
39	0x3bb2d46a	0.0054574506
40	0xbba1119e	-0.00491543
41	0x3bac90ac	0.0052662697
42	0xbc93b984	-0.018032797
43	0x3a07e290	0.0005183602
44	0x3c9449d0	0.018101603
45	0xbc01be67	-0.007918931
46	0x39ef8f6c	0.0004569249
47	0xb916e285	-0.000143895
48	0x3ad4be17	0.0016230968
49	0x3bc10704	0.005890729
50	0x3ad8ad54	0.0016531148
51	0x3b86011e	0.0040894886
52	0x3bf28856	0.0074015064
53	0x3a115582	0.00055440527
54	0x3c187068	0.0093041435
55	0x3ba892da	0.005144459
56	0xbb954de4	-0.0045564044
57	0x3b8cb456	0.0042939587
58	0x3bb4af2d	0.0055140466
59	0xbb9d2e75	-0.004796798
60	0x3baae5f8	0.0052154027
61	0xbc1a8ec4	-0.009433452
62	0xbb8862ca	-0.004162167
63	0x3c0d0816	0.008607885
64	0xbad2049e	-0.0016023105
65	0xbbbb059d	-0.0057074563
66	0x3c18baff	0.009321927
67	0x3b195a0d	0.0023399622
68	0xbc0002a3	-0.007813129
69	0xbb465cfc	-0.0030267825
70	0xbba5541f	-0.0050454284
71	0xbc140afc	-0.009035822
72	0xbb9d90af	-0.0048085074
73	0xbbc2e046	-0.0059471456
74	0xbb50896b	-0.0031820189
75	0x3c07f9f0	0.008299336
76	0xbb4f15f4	-0.0031598778
77	0xbc631c07	-0.013861663
78	0x3ba3aa1d	0.0049946443
79	0xbc00a169	-0.007850983
80	0xb9291edd	-0.00016128593
81	0xbc05135d	-0.008122292
82	0x3be31d10	0.0069309548
83	0x3ae1e2bc	0.001723371
84	0x3b5de3ef	0.0033857783
85	0x3a236df2	0.00062343397
86	0x3c39922c	0.011326354
87	0xbb0d1238	-0.0021525752
88	0xbc061305	-0.008183246
89	0x3c04ea91	0.008112566
90	0xbb26b3f7	-0.0025436857
91	0xbc07852a	-0.008271495
92	0x3bfc36e1	0.0076969718
93	0xbb3c3f75	-0.0028724347
94	0xbad3a8c8	-0.0016148323
95	0x3c685fcb	0.014182995
96	0x3bb05533	0.0053812503
97	0xbb3802f9	-0.0028077944
98	0x3c836800	0.016040802
99	0x3c4f69f0	0.012659535
100	0x3bd43f74	0.0064772908
101	0xba107bbc	-0.0005511602
102	0xbc5b77ff	-0.0133953085
103	0x3aadf0bd	0.0013270598
104	0x3c02531f	0.007954388
105	0x3b890f31	0.004182719
106	0x390356ba	0.00012525442
107	0x3bd30241	0.0064394777
108	0xbbc45a04	-0.005992176
109	0xbb598832	-0.003319275
110	0xba0c8f82	-0.00053619605
111	0x3b0c9f0c	0.0021457104
112	0x3bf9803c	0.0076141637
113	0xbae17756	-0.0017201703
114	0x3b6e400b	0.003635409
115	0xbbef8a0a	-0.0073101567
116	0xbae88843	-0.0017740804
117	0xbbbd0fa1	-0.0057696854
118	0x3bcea2a9	0.0063060117
119	0x3b92a63d	0.0044753836
120	0xbb27ea10	-0.002562169
121	0x3ad99935	0.0016601445
122	0xba48f9e6	-0.00076666323
123	0xbb3ce162	-0.0028820862
124	0x3b795e86	0.0038050725
125	0xbb94adce	-0.0045373207
126	0xbaead557	-0.0017916363
127	0xbc19f71a	-0.0093972925
128	0x3c497c4a	0.012297699
129	0xbbe4b254	-0.006979266
130	0x3b010b1f	0.0019690467
131	0xb9c2fbd9	-0.00037190205
132	0x3c3b33b9	0.011425906
133	0xbb74a6bb	-0.0037330824
134	0xbbc047d3	-0.005867937
135	0xbc84e8e5	-0.016224334
136	0xbc86c0f8	-0.016449437
137	0xbc6074f7	-0.013699762
138	0xbb1db4aa	-0.0024063983
139	0xbc094fb8	-0.008380823
140	0xbbfa735b	-0.007643146
141	0xbc0a252f	-0.008431717
142	0xbcb55c9d	-0.022138888
143	0xbc1fea62	-0.009760471
144	0xb96adfe6	-0.00022399388
145	0xbc09ca61	-0.008410067
146	0xb77fda90	-1.52500725e-05
147	0xba0f8c48	-0.00054759206
148	0xba531ba2	-0.0008053129
149	0x3a8e074a	0.0010835913
150	0xbbfc6dd0	-0.0077035204
151	0xb903d2a5	-0.00012571605
152	0xbc0dfacc	-0.008665752
153	0x3b10e18e	0.0022107097
154	0x3a51396d	0.00079812744
155	0xbb260e50	-0.002533812
156	0xbc3f2c6c	-0.011668306
157	0xbc273bd7	-0.010207138
158	0xbbf0a84b	-0.007344281
159	0xbba07ee3	-0.0048979386
160	0x3c0b9c2f	0.008521124
161	0x3b713c10	0.0036809482
162	0x3be7c934	0.007073546
163	0xbbb6aeb2	-0.0055750245
164	0x3bcc4216	0.006233464
165	0x3c666645	0.014062469
166	0xba37d2d3	-0.0007012311
167	0x3a829352	0.0009962118
168	0xbc8085ee	-0.015688863
169	0xbbc6eed9	-0.0060709533
170	0xbadcc35c	-0.001684289
171	0x3b43cc9f	0.0029876602
172	0xbb164d8b	-0.0022934403
173	0xbc61234a	-0.013741324
174	0xbc10aa5c	-0.008829679
175	0xbb69af0b	-0.0035657312
176	0xba03ba98	-0.0005025058
177	0x39ce35e6	0.0003933154
178	0x3be03092	0.0068417275
179	0x3bc6300b	0.0060482076
180	0x3a257dc8	0.00063129934
181	0x3b8488a8	0.004044611
182	0x3c449dcf	0.012000515
183	0x3bf603f4	0.0075077955
184	0x3bd1cf45	0.0064028823
185	0x3bde8850	0.006791152
186	0x3bc04d23	0.0058685704
187	0xba9824a2	-0.0011607597
188	0xbbe3a524	-0.0069471765
189	0x39e0afa4	0.00042855472
190	0xbc07c018	-0.008285545
191	0x3baa11e7	0.0051901224
192	0xb9065aaa	-0.00012813011
193	0x3bbd00cc	0.0057679173
194	0xbb9e25d8	-0.0048262887
195	0x3a68e262	0.00088838313
196	0xbb7434a5	-0.0037262824
197	0x3ca7a410	0.020463973
198	0x3c54505f	0.012958615
199	0x3c6d1e6c	0.014472585
200	0xbc40ffe8	-0.011779763
201	0xbc368059	-0.011138999
202	0xbc5ed087	-0.0135995215
203	0xbaff9fdd	-0.0019502599
204	0xbc086f3f	-0.008327304
205	0xbbf49caa	-0.007464965
206	0xbb87f3fe	-0.004148959
207	0xba8f7c66	-0.0010947108
208	0xbc5d1ec4	-0.013496105
209	0xbb48a748	-0.0030617286
210	0x3b14441b	0.0022623602
211	0x3a9815ff	0.0011603235
212	0xbb483a91	-0.0030552486
213	0xbc05f407	-0.008175856
214	0xbb3fe288	-0.002927931
215	0x3b9d86dd	0.0048073367
216	0x3b70b894	0.003673111
217	0xbc4f4083	-0.012649658
218	0xbb4d45ac	-0.0031322045
219	0x3b97807f	0.004623472
220	0xbbb7e318	-0.0056117885
221	0x3be99f94	0.007129619
222	0xbc26843d	-0.010163364
223	0xbc18b2f6	-0.009320011
224	0x3c503341	0.012707532
225	0x3a23127e	0.0006220712
226	0xbc394890	-0.011308804
227	0xbae17745	-0.0017201683
228	0x3b1719f2	0.0023056236
229	0x3b1f6e44	0.0024327198
230	0x3cc93949	0.024563449
231	0x3c2326a4	0.009957943
232	0x3ba3fce1	0.0050045107
233	0xbca85dc1	-0.020552518
234	0xbc11f210	-0.00890781
235	0xbc32f1a7	-0.010921872
236	0x3c720963	0.014772746
237	0xbc1bfa23	-0.009520086
238	0xbc2703fc	-0.010193821
239	0xbc279d9a	-0.010230446
240	0xbc6931ef	-0.0142330965
241	0xbb94c727	-0.0045403424
242	0xbba5427e	-0.005043327
243	0xbb49b9af	-0.0030780842
244	0xbc470101	-0.012146235
245	0xbbe74fb3	-0.0070590614
246	0xbbb935f9	-0.005652186
247	0x3b758082	0.003746063
248	0xba84a477	-0.0010119815
249	0xb9d5d3ae	-0.0004078424
250	0x3bd8c254	0.0066149626
251	0xbb455b4e	-0.0030114236
252	0xbbf41e55	-0.007449905
253	0xbaef6818	-0.0018265275
254	0x39a2da3a	0.0003106164
255	0x3bf50509	0.007477407

fc.bias f4 [3]
0	0x3be8a749	0.00710002
1	0xbb8499d7	-0.0040466595
2	0x3b48dce3	0.0030649237
